Transformers version: 4.29.2
Accelerate version: 0.19.0
PEFT version: 0.3.0
dict_keys(['train', 'validation'])
trainable params: 85876325 || all params: 85876325 || trainable%: 100.00
ViTForImageClassification(
  (vit): ViTModel(
    (embeddings): ViTEmbeddings(
      (patch_embeddings): ViTPatchEmbeddings(
        (projection): Conv2d(3, 768, kernel_size=(16, 16), stride=(16, 16))
      )
      (dropout): Dropout(p=0.0, inplace=False)
    )
    (encoder): ViTEncoder(
      (layer): ModuleList(
        (0-11): 12 x ViTLayer(
          (attention): ViTAttention(
            (attention): ViTSelfAttention(
              (query): Linear(in_features=768, out_features=768, bias=True)
              (key): Linear(in_features=768, out_features=768, bias=True)
              (value): Linear(in_features=768, out_features=768, bias=True)
              (dropout): Dropout(p=0.0, inplace=False)
            )
            (output): ViTSelfOutput(
              (dense): Linear(in_features=768, out_features=768, bias=True)
              (dropout): Dropout(p=0.0, inplace=False)
            )
          )
          (intermediate): ViTIntermediate(
            (dense): Linear(in_features=768, out_features=3072, bias=True)
            (intermediate_act_fn): GELUActivation()
          )
          (output): ViTOutput(
            (dense): Linear(in_features=3072, out_features=768, bias=True)
            (dropout): Dropout(p=0.0, inplace=False)
          )
          (layernorm_before): LayerNorm((768,), eps=1e-12, elementwise_affine=True)
          (layernorm_after): LayerNorm((768,), eps=1e-12, elementwise_affine=True)
        )
      )
    )
    (layernorm): LayerNorm((768,), eps=1e-12, elementwise_affine=True)
  )
  (classifier): Linear(in_features=768, out_features=101, bias=True)
)
trainable params: 745162 || all params: 86543818 || trainable%: 0.86
{'loss': 3.5414, 'learning_rate': 0.004993243243243244, 'epoch': 0.07}
{'loss': 1.6439, 'learning_rate': 0.0049864864864864866, 'epoch': 0.14}
{'loss': 1.1117, 'learning_rate': 0.00497972972972973, 'epoch': 0.2}
{'loss': 1.0031, 'learning_rate': 0.004972972972972973, 'epoch': 0.27}
{'loss': 0.9905, 'learning_rate': 0.004966216216216216, 'epoch': 0.34}
…
{'loss': 0.7518, 'learning_rate': 0.004722972972972973, 'epoch': 2.77}
{'loss': 0.7611, 'learning_rate': 0.0047162162162162164, 'epoch': 2.84}
{'loss': 0.7289, 'learning_rate': 0.00470945945945946, 'epoch': 2.91}
{'loss': 0.724, 'learning_rate': 0.004702702702702703, 'epoch': 2.97}
Transformers version: 4.29.2
Accelerate version: 0.19.0
PEFT version: 0.3.0
dict_keys(['train', 'validation'])
trainable params: 85876325 || all params: 85876325 || trainable%: 100.00
ViTForImageClassification(
  (vit): ViTModel(
    (embeddings): ViTEmbeddings(
      (patch_embeddings): ViTPatchEmbeddings(
        (projection): Conv2d(3, 768, kernel_size=(16, 16), stride=(16, 16))
      )
      (dropout): Dropout(p=0.0, inplace=False)
    )
    (encoder): ViTEncoder(
      (layer): ModuleList(
        (0-11): 12 x ViTLayer(
          (attention): ViTAttention(
            (attention): ViTSelfAttention(
              (query): Linear(in_features=768, out_features=768, bias=True)
              (key): Linear(in_features=768, out_features=768, bias=True)
              (value): Linear(in_features=768, out_features=768, bias=True)
              (dropout): Dropout(p=0.0, inplace=False)
            )
            (output): ViTSelfOutput(
              (dense): Linear(in_features=768, out_features=768, bias=True)
              (dropout): Dropout(p=0.0, inplace=False)
            )
          )
          (intermediate): ViTIntermediate(
            (dense): Linear(in_features=768, out_features=3072, bias=True)
            (intermediate_act_fn): GELUActivation()
          )
          (output): ViTOutput(
            (dense): Linear(in_features=3072, out_features=768, bias=True)
            (dropout): Dropout(p=0.0, inplace=False)
          )
          (layernorm_before): LayerNorm((768,), eps=1e-12, elementwise_affine=True)
          (layernorm_after): LayerNorm((768,), eps=1e-12, elementwise_affine=True)
        )
      )
    )
    (layernorm): LayerNorm((768,), eps=1e-12, elementwise_affine=True)
  )
  (classifier): Linear(in_features=768, out_features=101, bias=True)
)
trainable params: 745162 || all params: 86543818 || trainable%: 0.86
{'loss': 3.5342, 'learning_rate': 0.004993243243243244, 'epoch': 0.07}
{'loss': 1.6411, 'learning_rate': 0.0049864864864864866, 'epoch': 0.14}
{'loss': 1.1066, 'learning_rate': 0.00497972972972973, 'epoch': 0.2}
Transformers version: 4.29.2
Accelerate version: 0.19.0
PEFT version: 0.3.0
dict_keys(['train', 'validation'])
trainable params: 85876325 || all params: 85876325 || trainable%: 100.00
ViTForImageClassification(
  (vit): ViTModel(
    (embeddings): ViTEmbeddings(
      (patch_embeddings): ViTPatchEmbeddings(
        (projection): Conv2d(3, 768, kernel_size=(16, 16), stride=(16, 16))
      )
      (dropout): Dropout(p=0.0, inplace=False)
    )
    (encoder): ViTEncoder(
      (layer): ModuleList(
        (0-11): 12 x ViTLayer(
          (attention): ViTAttention(
            (attention): ViTSelfAttention(
              (query): Linear(in_features=768, out_features=768, bias=True)
              (key): Linear(in_features=768, out_features=768, bias=True)
              (value): Linear(in_features=768, out_features=768, bias=True)
              (dropout): Dropout(p=0.0, inplace=False)
            )
            (output): ViTSelfOutput(
              (dense): Linear(in_features=768, out_features=768, bias=True)
              (dropout): Dropout(p=0.0, inplace=False)
            )
          )
          (intermediate): ViTIntermediate(
            (dense): Linear(in_features=768, out_features=3072, bias=True)
            (intermediate_act_fn): GELUActivation()
          )
          (output): ViTOutput(
            (dense): Linear(in_features=3072, out_features=768, bias=True)
            (dropout): Dropout(p=0.0, inplace=False)
          )
          (layernorm_before): LayerNorm((768,), eps=1e-12, elementwise_affine=True)
          (layernorm_after): LayerNorm((768,), eps=1e-12, elementwise_affine=True)
        )
      )
    )
    (layernorm): LayerNorm((768,), eps=1e-12, elementwise_affine=True)
  )
  (classifier): Linear(in_features=768, out_features=101, bias=True)
)
trainable params: 745162 || all params: 86543818 || trainable%: 0.86
Transformers version: 4.29.2
Accelerate version: 0.19.0
PEFT version: 0.3.0
dict_keys(['train', 'validation'])
trainable params: 85876325 || all params: 85876325 || trainable%: 100.00
ViTForImageClassification(
  (vit): ViTModel(
    (embeddings): ViTEmbeddings(
      (patch_embeddings): ViTPatchEmbeddings(
        (projection): Conv2d(3, 768, kernel_size=(16, 16), stride=(16, 16))
      )
      (dropout): Dropout(p=0.0, inplace=False)
    )
    (encoder): ViTEncoder(
      (layer): ModuleList(
        (0-11): 12 x ViTLayer(
          (attention): ViTAttention(
            (attention): ViTSelfAttention(
              (query): Linear(in_features=768, out_features=768, bias=True)
              (key): Linear(in_features=768, out_features=768, bias=True)
              (value): Linear(in_features=768, out_features=768, bias=True)
              (dropout): Dropout(p=0.0, inplace=False)
            )
            (output): ViTSelfOutput(
              (dense): Linear(in_features=768, out_features=768, bias=True)
              (dropout): Dropout(p=0.0, inplace=False)
            )
          )
          (intermediate): ViTIntermediate(
            (dense): Linear(in_features=768, out_features=3072, bias=True)
            (intermediate_act_fn): GELUActivation()
          )
          (output): ViTOutput(
            (dense): Linear(in_features=3072, out_features=768, bias=True)
            (dropout): Dropout(p=0.0, inplace=False)
          )
          (layernorm_before): LayerNorm((768,), eps=1e-12, elementwise_affine=True)
          (layernorm_after): LayerNorm((768,), eps=1e-12, elementwise_affine=True)
        )
      )
    )
    (layernorm): LayerNorm((768,), eps=1e-12, elementwise_affine=True)
  )
  (classifier): Linear(in_features=768, out_features=101, bias=True)
)
trainable params: 745162 || all params: 86543818 || trainable%: 0.86
{'loss': 0.6643, 'learning_rate': 0.004696621621621622, 'epoch': 3.04}
{'loss': 0.6348, 'learning_rate': 0.004689864864864865, 'epoch': 3.11}
{'loss': 0.6476, 'learning_rate': 0.0046831081081081085, 'epoch': 3.18}
{'loss': 0.664, 'learning_rate': 0.004676351351351352, 'epoch': 3.24}
…
